…
r. You may want to copy the array to protect its data or make it writeable before converting it to a tensor. This type of warning will be suppressed for the rest of this program. (Triggered internally at  /opt/conda/conda-bld/pytorch_1623448272031/work/torch/csrc/utils/tensor_numpy.cpp:180.)
  return torch.from_numpy(parsed.astype(m[2], copy=False)).view(*s)
cuda:0
----------------------------------------------------------------
        Layer (type)               Output Shape         Param #
================================================================
            Linear-1                  [-1, 500]         392,500
            Linear-2                    [-1, 3]           1,503
            Linear-3                    [-1, 3]           1,503
            Linear-4                  [-1, 500]           2,000
            Linear-5                  [-1, 784]         392,784
================================================================
Total params: 790,290
Trainable params: 790,290
Non-trainable params: 0
----------------------------------------------------------------
Input size (MB): 0.00
Forward/backward pass size (MB): 0.01
Params size (MB): 3.01
Estimated Total Size (MB): 3.03
----------------------------------------------------------------
cuda:0
----------------------------------------------------------------
        Layer (type)               Output Shape         Param #
================================================================
            Linear-1                  [-1, 500]         392,500
            Linear-2                    [-1, 5]           2,505
            Linear-3                    [-1, 5]           2,505
            Linear-4                  [-1, 500]           3,000
            Linear-5                  [-1, 784]         392,784
================================================================
Total params: 793,294
Trainable params: 793,294
Non-trainable params: 0
----------------------------------------------------------------
Input size (MB): 0.00
Forward/backward pass size (MB): 0.01
Params size (MB): 3.03
Estimated Total Size (MB): 3.04
----------------------------------------------------------------
cuda:0
----------------------------------------------------------------
        Layer (type)               Output Shape         Param #
================================================================
            Linear-1                  [-1, 500]         392,500
            Linear-2                   [-1, 10]           5,010
            Linear-3                   [-1, 10]           5,010
            Linear-4                  [-1, 500]           5,500
            Linear-5                  [-1, 784]         392,784
================================================================
Total params: 800,804
Trainable params: 800,804
Non-trainable params: 0
----------------------------------------------------------------
Input size (MB): 0.00
Forward/backward pass size (MB): 0.01
Params size (MB): 3.05
Estimated Total Size (MB): 3.07
----------------------------------------------------------------
cuda:0
----------------------------------------------------------------
        Layer (type)               Output Shape         Param #
================================================================
            Linear-1                  [-1, 500]         392,500
            Linear-2                   [-1, 20]          10,020
            Linear-3                   [-1, 20]          10,020
            Linear-4                  [-1, 500]          10,500
            Linear-5                  [-1, 784]         392,784
================================================================
Total params: 815,824
Trainable params: 815,824
Non-trainable params: 0
----------------------------------------------------------------
Input size (MB): 0.00
Forward/backward pass size (MB): 0.01
Params size (MB): 3.11
Estimated Total Size (MB): 3.13
----------------------------------------------------------------
cuda:0
----------------------------------------------------------------
        Layer (type)               Output Shape         Param #
================================================================
            Linear-1                  [-1, 500]         392,500
            Linear-2                  [-1, 200]         100,200
            Linear-3                  [-1, 200]         100,200
            Linear-4                  [-1, 500]         100,500
            Linear-5                  [-1, 784]         392,784
================================================================
Total params: 1,086,184
Trainable params: 1,086,184
Non-trainable params: 0
----------------------------------------------------------------
Input size (MB): 0.00
Forward/backward pass size (MB): 0.02
Params size (MB): 4.14
Estimated Total Size (MB): 4.16
----------------------------------------------------------------
