cuda:0
----------------------------------------------------------------
        Layer (type)               Output Shape         Param #
================================================================
            Linear-1                  [-1, 500]         392,500
            Linear-2                    [-1, 2]           1,002
            Linear-3                    [-1, 2]           1,002
            Linear-4                  [-1, 500]           1,500
            Linear-5                  [-1, 784]         392,784
================================================================
Total params: 788,788
Trainable params: 788,788
Non-trainable params: 0
----------------------------------------------------------------
Input size (MB): 0.00
Forward/backward pass size (MB): 0.01
Params size (MB): 3.01
Estimated Total Size (MB): 3.03
----------------------------------------------------------------
Epoch [1 / 200] average reconstruction error: 18256.417065
…
